
---------------------------
1D-CNN
---------------------------

verbose = 1
embedding_dim = 128 #DIMENSION OF EMBEDING SPACE (SIZE OF VECTOR FOR EACH WORD)
max_words = 10000  #DEFINES SIZE OF VOCBULARY TO USE
maxlen = 200 #CUTOFF REVIEWS maxlen 200 WORDS)
L1 Regularization 0.001
K = 1
epoches = 10
batch_size = 512

Model: "sequential_38"
_________________________________________________________________
Layer (type)                 Output Shape              Param #   
=================================================================
embedding_37 (Embedding)     (None, 200, 128)          1280000   
_________________________________________________________________
dense_39 (Dense)             (None, 200, 64)           8256      
_________________________________________________________________
conv1d_67 (Conv1D)           (None, 194, 32)           14368     
_________________________________________________________________
max_pooling1d_36 (MaxPooling (None, 64, 32)            0         
_________________________________________________________________
conv1d_68 (Conv1D)           (None, 58, 32)            7200      
_________________________________________________________________
max_pooling1d_37 (MaxPooling (None, 19, 32)            0         
_________________________________________________________________
conv1d_69 (Conv1D)           (None, 13, 32)            7200      
_________________________________________________________________
global_max_pooling1d_29 (Glo (None, 32)                0         
_________________________________________________________________
dense_40 (Dense)             (None, 3)                 99        
=================================================================
Total params: 1,317,123
Trainable params: 1,317,123
Non-trainable params: 0
_________________________________________________________________
Epoch 1/10
19/19 [==============================] - 9s 417ms/step - loss: 1.6863 - acc: 0.4221 - auc: 0.5968 - val_loss: 1.5659 - val_acc: 0.4549 - val_auc: 0.6464
Epoch 2/10
19/19 [==============================] - 7s 365ms/step - loss: 1.4531 - acc: 0.5072 - auc: 0.7007 - val_loss: 1.3398 - val_acc: 0.5434 - val_auc: 0.7387
…
