Model: "model_1"
_________________________________________________________________
Layer (type)                 Output Shape              Param #   
=================================================================
input_2 (InputLayer)         [(None, 28, 28, 1)]       0         
_________________________________________________________________
conv2d_3 (Conv2D)            (None, 28, 28, 16)        160       
_________________________________________________________________
max_pooling2d_1 (MaxPooling2 (None, 14, 14, 16)        0         
_________________________________________________________________
conv2d_4 (Conv2D)            (None, 14, 14, 8)         2056      
_________________________________________________________________
up_sampling2d_1 (UpSampling2 (None, 28, 28, 8)         0         
_________________________________________________________________
conv2d_5 (Conv2D)            (None, 28, 28, 1)         73        
=================================================================
Total params: 2,289
Trainable params: 2,289
Non-trainable params: 0
_________________________________________________________________
Epoch 1/10
96/96 [==============================] - 30s 306ms/step - loss: 0.0196 - val_loss: 0.0096
Epoch 2/10
96/96 [==============================] - 29s 297ms/step - loss: 0.0082 - val_loss: 0.0072
…
