Model: "model"
_________________________________________________________________
Layer (type)                 Output Shape              Param #   
=================================================================
input_1 (InputLayer)         [(None, 32, 32, 3)]       0         
_________________________________________________________________
conv2d (Conv2D)              (None, 32, 32, 16)        448       
_________________________________________________________________
max_pooling2d (MaxPooling2D) (None, 16, 16, 16)        0         
_________________________________________________________________
conv2d_1 (Conv2D)            (None, 16, 16, 8)         2056      
_________________________________________________________________
up_sampling2d (UpSampling2D) (None, 32, 32, 8)         0         
_________________________________________________________________
conv2d_2 (Conv2D)            (None, 32, 32, 3)         219       
=================================================================
Total params: 2,723
Trainable params: 2,723
Non-trainable params: 0
_________________________________________________________________
2021-11-11 15:56:35.746035: I tensorflow/compiler/mlir/mlir_graph_optimization_pass.cc:185] None of the MLIR Optimization Passes are enabled (registered 2)
Epoch 1/20
80/80 [==============================] - 34s 415ms/step - loss: 0.0300 - val_loss: 0.0149
…
